checkpoints/policy_biped.onnx (onnx, 252181 bytes, 8 tensors)

actor.0.weight f4 [256, 45]
0	0x3d2891d1	0.041154686
1	0xbf037bf4	-0.5136101
2	0x3e5223f6	0.2052153
3	0x3edb05e7	0.4277794
4	0x3e157221	0.14594318
5	0x3d2231a7	0.039598133
6	0x3ef88c4a	0.48544532
7	0x3f06f2bd	0.5271414
8	0x3f256eac	0.64621997
9	0x3f603f80	0.87596893
10	0x3eb631f3	0.35584983
11	0x3f3d6b6c	0.7399204
12	0x3d510aa3	0.051035535
13	0xbed1e682	-0.40996176
14	0x3dbbefe3	0.09176614
15	0xbfbe37d5	-1.4860789
16	0xbe9af71b	-0.30266652
17	0x3f16a48b	0.5884482
18	0xbe8f66f5	-0.28008237
19	0xbed7f3b9	-0.42178133
20	0x3f49e871	0.788703
21	0xbd80e247	-0.06293159
22	0x3e2bc797	0.16775356
23	0xbe13520b	-0.14386766
24	0xbe2a24e2	-0.16615632
25	0xbdf6bc60	-0.120476484
26	0xbd992e2b	-0.07479509
27	0xbd368041	-0.044555906
28	0xbc1f5704	-0.009725336
29	0x3d85ad88	0.06527239
30	0xbd31f99e	-0.043450944
31	0x3d9ed530	0.07755506
32	0xbcd80568	-0.026369765
33	0x3dbec614	0.09315124
34	0x3d8dcb9a	0.069235995
35	0x3c9c6fb8	0.01909624
36	0x3d9eba26	0.07750349
37	0xbd886a1e	-0.06660865
38	0xbd27657c	-0.040868267
39	0x3d1e7fbe	0.038696043
40	0x3e9d520b	0.30726656
41	0x3e5a74c3	0.21333604
42	0x3dc17c30	0.09447515
43	0xbe5bbc4a	-0.21458545
44	0x3ccd3ead	0.0250543
45	0x3f72c61b	0.94833535
46	0x3ea5b86c	0.32367265
47	0xbf193499	-0.5984588
48	0x3b862fd5	0.0040950575
49	0xbd91a0fb	-0.07110783
50	0x3bf2d3cd	0.0074105025
51	0xbf942903	-1.1575016
52	0x4024a188	2.572359
53	0x3eb12acf	0.34602973
54	0x3daf51c4	0.085605174
55	0x3f304f0e	0.6887063
56	0xbf8304fb	-1.0235895
57	0xbe896c54	-0.2684046
58	0x3f5b8bd9	0.85760266
59	0xbf8de971	-1.1086866
60	0xbe68afb2	-0.22723272
61	0xbf9622c9	-1.1729366
62	0x3f5a181e	0.8519305
63	0x3e9c7d19	0.30564192
64	0xbf5c6bd7	-0.8610205
65	0xbf5d912a	-0.8654963
66	0xbbac54e0	-0.0052591413
67	0xbd438dcf	-0.04774266
68	0x3ca121c4	0.019669421
69	0x3b8476b6	0.0040424718
70	0xbcc92b00	-0.024556637
71	0x3bcc1c15	0.0062289336
72	0xbbc425ed	-0.0059859664
73	0xbd87a3a5	-0.066230096
74	0x3c50c93a	0.012743289
75	0x397b4959	0.0002396455
76	0xbcf18b74	-0.029485442
77	0xbc1e17cc	-0.009649228
78	0xbd9c9639	-0.0764584
79	0xbd79b091	-0.060959402
80	0x3e08b165	0.1334892
81	0xbd0ee2e3	-0.034884345
82	0xbdba705a	-0.091034606
83	0x3d847ea0	0.06469464
84	0xbcc33189	-0.023827331
85	0xbdaa4d57	-0.08315533
86	0x3df9a2c5	0.12189249
87	0xbce9e889	-0.028553264
88	0x3d012aae	0.031534843
89	0x3bc190fd	0.0059071765
90	0xbe95efe3	-0.29284582
91	0xbe396bcd	-0.18107529
92	0x3eb4a1fc	0.35279834
93	0x3cdee03b	0.02720653
94	0xbdbd6a9b	-0.09248849
95	0xbe0cd4d4	-0.13753062
96	0x3ef718be	0.48261064
97	0x3ebc7eeb	0.3681558
98	0x3e2ab76e	0.16671535
99	0x3e96f614	0.29484618
100	0xbc80e8c5	-0.015735993
101	0xbfae7f81	-1.3632661
102	0xbf586525	-0.84529334
103	0x3ef5ee29	0.48033264
104	0x3f1bd38d	0.60869676
105	0x4000604b	2.0058773
106	0x3fd1edbe	1.6400678
107	0x3f4d6365	0.8022979
108	0x3fae16b9	1.3600684
109	0x3ef0960e	0.46989483
110	0xbe0caf8e	-0.13738844
111	0x3cfdd542	0.030985478
112	0x3bd5d014	0.006525049
113	0xb959749e	-0.00020738176
114	0x3d8d49fd	0.06898878
115	0x3ccc7a1f	0.024960576
116	0x3b89cbb8	0.0042051934
117	0x3c801637	0.015635593
118	0x3d16c78c	0.036811396
119	0xba542e0e	-0.0008094021
120	0xbca793e1	-0.020456256
121	0x3dc8642e	0.09784733
122	0xbc3a0a60	-0.011355013
123	0xbd0a4473	-0.033756685
124	0xbd49f064	-0.04930152
125	0x3d964fc0	0.0733943
126	0x3d3de61e	0.046362035
127	0xbd2fed45	-0.042950887
128	0xbcb6e869	-0.022327619
129	0xbdbddcc3	-0.092706226
130	0x3a74fc66	0.00093454716
131	0x3c89342b	0.016748508
132	0x3d898205	0.067142524
133	0x3bafb4b6	0.0053621186
134	0x3d24694c	0.04013948
135	0xbf095706	-0.5364841
136	0x3f346ec9	0.70481545
137	0xbf38737e	-0.7205123
138	0x3e26453d	0.1623735
139	0xbe4a75fe	-0.19771573
140	0xbe1db679	-0.15401639
141	0xc04d8391	-3.2111552
142	0x3f57004e	0.8398484
143	0x3e972170	0.29517698
144	0x3f6dbba9	0.9286447
145	0xbfc4255c	-1.5323901
146	0xbed93cab	-0.42429098
147	0x3e881765	0.2658035
148	0xbe7e1ba0	-0.24815226
149	0x3e8e82a6	0.27834052
150	0xbf61ed06	-0.88252294
151	0x3ed0e92b	0.40802893
152	0xbdb16b28	-0.086630166
153	0xbee0224a	-0.4377616
154	0x3f95232b	1.1651357
155	0xbef165f8	-0.47148108
156	0xbc612531	-0.013741777
157	0x3d2add47	0.041714933
158	0xbd339bad	-0.043849636
159	0x3c4f0185	0.01263464
160	0xbd72ca37	-0.05927488
161	0xbd6630fc	-0.05619906
162	0xbd1819b6	-0.037133895
163	0x3cc9e4d1	0.024645241
164	0xbd35ae69	-0.044355784
165	0xbbb4b685	-0.005514922
166	0x3d3be95e	0.045876853
167	0xbc423eb1	-0.011855767
168	0x3dfca69d	0.123364665
169	0x3cea3a15	0.028592149
170	0xbe2c3989	-0.16818823
171	0xbd95fd18	-0.073236644
172	0xbd668462	-0.056278594
173	0x3e04c460	0.12965536
174	0x3daa30e3	0.08310106
175	0xbc1854d6	-0.00929757
176	0x3d5957cb	0.05306224
177	0x3bf4eed8	0.0074747615
178	0x3db4eb63	0.08833959
179	0x3d984213	0.07434478
180	0xbf493533	-0.785968
181	0x3f20a1df	0.62746996
182	0x3e6dfb22	0.23240331
183	0xbe31d9aa	-0.17368189
184	0x3dcca4ef	0.09992396
185	0x3e217069	0.15765537
186	0x3e6eeec0	0.23333263
187	0xbd8f2fcf	-0.06991541
188	0x3dfe50d7	0.12417763
189	0x3fef5b35	1.8699709
190	0x3f717dd0	0.943326
191	0x3e7f64c4	0.24940783
192	0xbf18a127	-0.596209
193	0x3f49e8d1	0.78870875
194	0xbc87d7ab	-0.01658233
195	0xbfcf3636	-1.6188419
196	0xc01a04c8	-2.4065418
197	0xbdc20d2c	-0.094751686
198	0xbdb922da	-0.090398505
199	0x3b1ea09d	0.002420462
200	0xbd2348e8	-0.03986445
201	0xbe21d6db	-0.15804617
202	0xbd9b835f	-0.075934164
203	0xbd6c1152	-0.057633705
204	0x3e0824c8	0.13295281
205	0x3de99c6d	0.11406789
206	0x3d8ebd4e	0.06969701
207	0x3daa3957	0.08311718
208	0x399f36b4	0.000303676
209	0xbaa22a53	-0.0012372233
210	0x3cbc420d	0.022980714
211	0x3d06679a	0.032813646
212	0xbd85e4b0	-0.06537759
213	0x3d654ed9	0.055983398
214	0xbeac3bb1	-0.3363929
215	0x3e6739f9	0.22580709
216	0xbe1d216d	-0.15344782
217	0x3d480f95	0.048842985
218	0x3d6990b3	0.05702276
219	0x3e8085ef	0.25102183
220	0x3d3656f9	0.044516537
221	0x3db55d9f	0.088557474
222	0x3d4617d7	0.04836258
223	0xbe2e31e0	-0.17011213
224	0xbdfd535b	-0.123694144
225	0xbea2cc90	-0.31796694
226	0x3f36f521	0.7146779
227	0x3d55316d	0.05204909
228	0x3ecbbdfd	0.39793387
229	0x3d996e44	0.074917346
230	0x3d5aed1a	0.053448774
231	0x400b6141	2.177811
232	0xc007a2af	-2.1193044
233	0x3ee412f2	0.44545704
234	0x3eb58e0b	0.35459933
235	0xbd8bb3c0	-0.06821394
236	0xbf6209a0	-0.88295937
237	0xbd7b648b	-0.061375182
238	0xbea9b8ea	-0.3314889
239	0x3e2a5ed2	0.16637734
240	0xbef7d62c	-0.48405588
241	0xbed899ab	-0.4230474
242	0x3faff449	1.3746425
243	0x3bd818d2	0.0065947557
244	0xbf8edc82	-1.1161044
245	0x3f50b982	0.8153306
246	0x3d6f35ea	0.058401026
247	0x3c7bf372	0.015377866
248	0xbd82d7f3	-0.06388845
249	0xbd40eabd	-0.047098864
250	0xbd73fbb6	-0.059566222
251	0xbcf4de25	-0.029891083
252	0xbd25605f	-0.04037511
253	0xbdce36fb	-0.100690804
254	0x3c66583a	0.014059121
255	0xbd5af7cd	-0.053458977

actor.0.bias f4 [256]
0	0xbf1db0b1	-0.61597735
1	0xbe9ca2c9	-0.30592945
2	0xbe57376c	-0.21017236
3	0xbeb28880	-0.34869766
4	0xbec6363e	-0.38713259
5	0xbe868371	-0.26272157
6	0xbe0ad6ca	-0.13558498
7	0x3df43a21	0.1192515
8	0xbec5c870	-0.38629484
9	0xbf0bcc74	-0.54608846
10	0x3dc7af21	0.097502
11	0xbea6e44e	-0.32596058
12	0xbee1b68b	-0.44084582
13	0x3d959861	0.073044546
14	0xbe920d09	-0.2852557
15	0xbe6504a1	-0.22365047
16	0x3eac8fce	0.33703464
17	0xbe1c4c3c	-0.15263456
18	0xbe48e77a	-0.19619551
19	0x3d1b29da	0.03788171
20	0xbea88264	-0.3291198
21	0x3e391814	0.18075591
22	0xbea9a5aa	-0.33134204
23	0xbe77a6c8	-0.24184716
24	0xbea7bc47	-0.32760832
25	0x3d6a12ba	0.057146765
26	0xbe51617e	-0.20447347
27	0xbe529e06	-0.20568094
28	0xbe8e78e0	-0.27826595
29	0x3e5325c0	0.20619869
30	0xbd0b98d3	-0.03408129
31	0xbe9da28b	-0.30788073
32	0x3de8af87	0.11361604
33	0x3d9929c9	0.07478673
34	0xbb9f0e58	-0.004854005
35	0x3d9b38c6	0.07579188
36	0xbe240dd9	-0.16020907
37	0xbe9c04eb	-0.30472502
38	0xbedc2f67	-0.43004915
39	0x3d40eea5	0.04710259
40	0xbf0cc05c	-0.5498102
41	0x3e075fe4	0.13220173
42	0xbebd063c	-0.3691882
43	0xbdd813f6	-0.10550682
44	0xbf20fa27	-0.628817
45	0xbe5edb99	-0.21763457
46	0x3d803f9b	0.06262132
47	0xbe28e361	-0.16492988
48	0xbe816239	-0.2527025
49	0xbeeb08b6	-0.45905083
50	0xbdcf64ac	-0.101266235
51	0x3e990e7b	0.2989386
52	0x3d15071a	0.036383726
53	0xbee9fdcc	-0.45701444
54	0xbeed838c	-0.46389425
55	0xbd34ff0c	-0.044188544
56	0xbf4204c7	-0.7578854
57	0xbd11e1c8	-0.035615712
58	0x3c9bc9d4	0.019017138
59	0x3da9d293	0.08292117
60	0xbe4ada80	-0.19809914
61	0xbe074a02	-0.13211825
62	0xbea170cc	-0.3153137
63	0x3de5abc3	0.112144016
64	0x3d957a9b	0.07298776
65	0xbdf9780f	-0.121811025
66	0xbcccf9b8	-0.025021419
67	0x3c8e54f5	0.017374495
68	0xbd972c50	-0.07381499
69	0xbe78d3e9	-0.24299587
70	0xbe50493e	-0.2034044
71	0x3e54c5ee	0.20778629
72	0xbf0830b5	-0.5319932
73	0xbeaed476	-0.3414647
74	0xbeee9bd0	-0.4660325
75	0x3e16b119	0.14715995
76	0xbea891db	-0.3292378
77	0xbe1206ee	-0.14260456
78	0xbd931000	-0.07180786
79	0xbdb308dc	-0.08741924
80	0xbe990d6f	-0.29893062
81	0x3dfd088b	0.12355145
82	0xbea72ffe	-0.32653803
83	0xbc4af9cb	-0.012388657
84	0xbef6ee7a	-0.48228818
85	0x3d67a3ed	0.056552816
86	0xbea6fbf9	-0.32614115
87	0xbf376004	-0.71630883
88	0xbf0de204	-0.55423
89	0xbebab631	-0.36467126
90	0xbeb9def1	-0.36302903
91	0x3db53663	0.08848264
92	0xbf1a11fb	-0.60183686
93	0xbd247b63	-0.040156733
94	0xbdb6c754	-0.089247376
95	0xbeebfbe9	-0.4609063
96	0xbeb0e5ac	-0.34550226
97	0xbe51a459	-0.2047285
98	0xbf0a480d	-0.5401619
99	0xbeb7980e	-0.35858196
100	0x3d7cab28	0.061686665
101	0xbe8c6e4a	-0.27427894
102	0xbe9aa46a	-0.30203563
103	0xbe82678e	-0.2546963
104	0x3e09b86c	0.13449258
105	0xbe6d3559	-0.23164882
106	0xbe5fd6f0	-0.21859336
107	0xbe254cde	-0.16142604
108	0xbeafb23c	-0.3431567
109	0x3bb309f3	0.0054638325
110	0xbd20843b	-0.039188605
111	0xbf276e9d	-0.6540316
112	0xbebfe5ee	-0.3748011
113	0x3e5191ef	0.20465825
114	0x3df0777f	0.11741542
115	0xbec7b84a	-0.3900779
116	0xbf014499	-0.50495297
117	0xbdde0f20	-0.108427286
118	0xbeaf7479	-0.3426855
119	0xbbc7b404	-0.0060944576
120	0xbed39218	-0.41322398
121	0xbd6aac36	-0.05729314
122	0xbe8be7ab	-0.27325186
123	0xbe6c4f21	-0.2307706
124	0xbee05c53	-0.43820438
125	0x3e315043	0.17315774
126	0x3e3e0b34	0.18558961
127	0x3e333aa1	0.17502834
128	0xb909098b	-0.00013068893
129	0xbe5df9d0	-0.21677327
130	0x3d66df05	0.05636503
131	0xbf04cc59	-0.5187431
132	0xbcef3ae1	-0.02920288
133	0xbe9750b4	-0.2955376
134	0xbf0a8e4c	-0.5412338
135	0x3e63c76d	0.22244044
136	0xbe4ede8b	-0.20202081
137	0xbefc6ba6	-0.4930088
138	0xbe01b6bd	-0.12667365
139	0xbed0226a	-0.40651256
140	0x3c12dc07	0.008963591
141	0xbd57ec81	-0.052715782
142	0xbc507add	-0.012724605
143	0xbf09b5c2	-0.53792965
144	0xbf0151e0	-0.50515556
145	0xbe4acfa3	-0.1980577
146	0xbe79ebe3	-0.2440639
147	0xbec44950	-0.38337183
148	0xbe38c795	-0.18044885
149	0xbe08294d	-0.13297005
150	0xbe37ce4d	-0.17949791
151	0xbe26d7b3	-0.1629322
152	0x3e5421ba	0.2071599
153	0xbe557b8f	-0.20847915
154	0xbe7eaa89	-0.24869741
155	0xbeedac9a	-0.46420747
156	0xbee2a045	-0.442629
157	0xbe5a6a49	-0.21329607
158	0xbeccea81	-0.40022662
159	0x3e98ca0a	0.29841644
160	0xbeae6062	-0.3405791
161	0xbf1f0f4e	-0.6213273
162	0xbe44663d	-0.19179626
163	0xbe9e3c4f	-0.30905387
164	0x3e8b2218	0.2717445
165	0x3ceea99b	0.029133609
166	0x3e36172a	0.17782274
167	0xbf33dfc9	-0.70263344
168	0xbed3dfa6	-0.41381568
169	0x3e2c2995	0.16812737
170	0xbdc8145c	-0.09769508
171	0xbece9998	-0.40351558
172	0xbe954d53	-0.29160556
173	0x3e991c6c	0.29904497
174	0xbe7caeeb	-0.24676101
175	0xbebb16b2	-0.36540753
176	0xbee77bab	-0.4521154
177	0xbe879736	-0.26482552
178	0xbeee0e01	-0.4649506
179	0xbe8ed457	-0.27896377
180	0x3e341c69	0.17588963
181	0xbe821203	-0.25404367
182	0xbe912262	-0.28346545
183	0xbd3736a1	-0.044729833
184	0xbe9cf4a7	-0.30655405
185	0xbe5fa984	-0.21842009
186	0xbe9f5ae4	-0.31124032
187	0xbe0a95d3	-0.13533716
188	0xbc54bc66	-0.012984371
189	0xbf151690	-0.5823755
190	0xbe7be12a	-0.24597612
191	0xbe03f89e	-0.12887809
192	0xbf00c71e	-0.5030383
193	0x3dc7fbe0	0.09764838
194	0xbdb3f8fb	-0.08787724
195	0xbe0bfafd	-0.13669963
196	0xbea64c55	-0.32480112
197	0x3e2bca42	0.16776374
198	0xbdeeb9f0	-0.116565585
199	0x3c39bc21	0.011336357
200	0xbf0715db	-0.52767724
201	0xbe1ac1ad	-0.15112944
202	0xbe5a2703	-0.21303944
203	0xbebee8a8	-0.37286878
204	0x3e104e3a	0.14092341
205	0x3d1aa72a	0.037757076
206	0xbe058810	-0.13040185
207	0xbd884060	-0.066529036
208	0x3e4a17a8	0.19735587
209	0xbe94384f	-0.2894921
210	0x3d94a70f	0.072584264
211	0xbea4086e	-0.3203768
212	0xbf1dfb5b	-0.61711663
213	0xbdbe8160	-0.0930202
214	0xbbd47b2d	-0.0064844103
215	0x3e892bd3	0.26791248
216	0xbed302cd	-0.41213074
217	0xbe405b8e	-0.18784925
218	0x3df0dcf6	0.11760895
219	0xbe88f05f	-0.2674589
220	0xbe6cf778	-0.23141277
221	0xbef26503	-0.4734269
222	0xbee0e06d	-0.43921223
223	0x3d0823fd	0.033237446
224	0xbe3ddbe0	-0.18540907
225	0x3db22058	0.08697575
226	0x3dcc6870	0.09980857
227	0x3b9b4e20	0.004739538
228	0xbf1a1c87	-0.6019978
229	0xbf2add38	-0.66743803
230	0xbe07ea66	-0.1327301
231	0x3daef850	0.085434556
232	0xbe867895	-0.26263872
233	0xbedfa6b0	-0.4368186
234	0xbeee9245	-0.4659597
235	0xbed8d9e8	-0.4235375
236	0x3d38c33a	0.045108058
237	0xbe6e7c0a	-0.23289505
238	0xbdecd1e6	-0.115634724
239	0xbd985d32	-0.074396506
240	0x3da67ad6	0.08128898
241	0xbf478eef	-0.77952474
242	0xbdd9ea90	-0.10640442
243	0xbd2a3a59	-0.04155955
244	0xbe15a6d8	-0.14614427
245	0xbe08cafe	-0.13358685
246	0xbe342e90	-0.17595887
247	0xbe86053e	-0.26175874
248	0xbe362b97	-0.17790066
249	0xbde5ea00	-0.112262726
250	0xbe7005cf	-0.23439716
251	0xbe832495	-0.25613847
252	0x3eebcc86	0.46054476
253	0x3a1b7065	0.0005929529
254	0xbedc5517	-0.43033668
255	0x3e1743ca	0.14771953

actor.2.weight f4 [128, 256]
0	0x3e1a19cc	0.15048903
1	0x3d24dcbd	0.040249575
2	0xbdb3fbba	-0.087882474
3	0xbd075a2a	-0.03304497
4	0xbda22ebf	-0.07919072
5	0x3e00e218	0.12586248
6	0x3e036c55	0.12834294
7	0x3dc22b06	0.09480862
8	0xbd55172b	-0.052024048
9	0x3d53e237	0.051729407
10	0xbd288f4c	-0.041152284
11	0x3d137448	0.035999566
12	0x3ce9d350	0.028543144
13	0x3dd74b39	0.105123945
14	0xbd44ccfd	-0.048047055
15	0x3d7b14c3	0.061299097
16	0x3cacb754	0.021083511
17	0x3da69b89	0.08135135
18	0xbe831e8f	-0.25609252
19	0x3ca3071a	0.019900847
20	0x3dcec375	0.10095874
21	0xbc6aca9c	-0.014330532
22	0xbe64c48b	-0.223406
23	0xbde36a06	-0.11104207
24	0xbd86b0e3	-0.06576707
25	0xbdb3bd38	-0.08776325
26	0x3e5b049d	0.21388479
27	0x3d82af6f	0.063811176
28	0xbe8ef286	-0.27919406
29	0x3d241422	0.040058263
30	0x3e5eb0e8	0.21747172
31	0x3e45b4df	0.19307278
32	0xbdf7996c	-0.1208981
33	0xbde41d27	-0.11138373
34	0x3a222eb8	0.0006186771
35	0xbeb7601f	-0.35815522
36	0xbe1db96c	-0.15402764
37	0x3cce93e8	0.025217012
38	0x3d61f6ad	0.05516689
39	0x3dfe28a3	0.124100946
40	0xbc775581	-0.015096069
41	0xbd921391	-0.07132638
42	0xbe230c4a	-0.15922657
43	0x3da8f76e	0.082503185
44	0x3dfd10d1	0.12356723
45	0xbe457d4b	-0.19286077
46	0xbd4432bc	-0.047899947
47	0x3d38c290	0.045107424
48	0x3d936ba8	0.07198268
49	0xbde4a0c0	-0.11163473
50	0x3d9e1d7a	0.07720466
51	0x3d89d20c	0.067295164
52	0x3e036c07	0.12834178
53	0x3ab379c6	0.0013692908
54	0xbd84e71f	-0.06489395
55	0x3d4280de	0.04748618
56	0x3e6aa10f	0.22913001
57	0xbe7a35cf	-0.24434589
58	0xbe1e31c3	-0.1544867
59	0xbe2973f1	-0.16548134
60	0x3e45196e	0.19247982
61	0xbdaed4c3	-0.08536675
62	0x3e717711	0.23580576
63	0xbe5b91c2	-0.21442321
64	0x3e8d29ca	0.27570945
65	0xbdcbb261	-0.099461325
66	0x3e5481f7	0.20752703
67	0xbcc97018	-0.024589583
68	0xbd6fdf44	-0.058562532
69	0xbd1808cc	-0.037117764
70	0x3e0ff1ae	0.14057037
71	0xbeee14a0	-0.4650011
72	0x3dce70de	0.100801215
73	0xbe97f7b8	-0.29681182
74	0x3e4fdc68	0.20298922
75	0xbd0d2592	-0.034459658
76	0x3dae8f30	0.085234046
77	0xbd515db6	-0.05111476
78	0x3db9e81d	0.09077475
79	0x3da9f318	0.082983196
80	0x3e08e1a2	0.13367322
81	0xbcf66777	-0.030078633
82	0x3e22b2ec	0.15888566
83	0xbc978136	-0.01849423
84	0x3cd73610	0.026270896
85	0xbb5162bc	-0.003194972
86	0x3e4c1355	0.1992925
87	0xbb99c0bf	-0.0046921666
88	0x3e7f68d3	0.24942331
89	0x3e2eb594	0.17061454
90	0xbeaa494a	-0.3325904
91	0x3d1bb47e	0.038013928
92	0x3e169ebe	0.14708993
93	0xbcef6c24	-0.02922637
94	0x3ec168e2	0.37775332
95	0xbc801352	-0.015634213
96	0xbe4c7c6f	-0.19969343
97	0xbae1e12b	-0.0017233243
98	0x3e295249	0.16535296
99	0x392fd349	0.0001676801
100	0x3df54010	0.119751096
101	0x3cdb217b	0.026749363
102	0x3e85a71e	0.26104063
103	0x3e7c4519	0.24635734
104	0xbd94d5eb	-0.07267364
105	0x3df8478c	0.121230215
106	0xbd256cda	-0.040387012
107	0x3d8ec14a	0.06970461
108	0x3e07c475	0.13258536
109	0xbd3c031e	-0.04590141
110	0xbdc8642d	-0.09784732
111	0x3ce4dfcd	0.027938748
112	0x3d457d2c	0.048215076
113	0xbe4b3c17	-0.19847141
114	0xbc23ad16	-0.009989997
115	0x3ba11363	0.004915641
116	0xbd137efd	-0.036009777
117	0xbe2f69a6	-0.17130145
118	0xbdd66b81	-0.104697235
119	0xbd933920	-0.0718863
120	0x3e635aa8	0.22202551
121	0x3d2dde29	0.042448197
122	0x3dd18acb	0.10231551
123	0x3e1d3f93	0.15356283
124	0x3dc34d1f	0.09536194
125	0xbeade400	-0.33963013
126	0xbe3d67c2	-0.18496612
127	0xbb9c2421	-0.004765049
128	0x3d9af044	0.07565358
129	0x3e6f5af0	0.23374534
130	0x3e26bffa	0.16284171
131	0xbcc6f6d5	-0.02428762
132	0xbeadfab4	-0.33980334
133	0x3d6d1655	0.057882626
134	0x3e0b6926	0.1361433
135	0xbe2a0725	-0.16604288
136	0xbc85ba2d	-0.016324127
137	0xbd972fea	-0.07382186
138	0x3dcb6e78	0.099331796
139	0xbdb5922d	-0.088657714
140	0xbd82c1a7	-0.063845925
141	0x3d85ebe3	0.065391324
142	0xbc801338	-0.015634164
143	0xbdad76f0	-0.08469951
144	0x3e3663b8	0.17811477
145	0x3be78cd5	0.007066349
146	0xbd9b4108	-0.07580763
147	0x3dda77a4	0.10667351
148	0x3d89e303	0.06732752
149	0xbdfeb6c1	-0.12437201
150	0x3db96d9c	0.090541095
151	0xbe93bf19	-0.28856733
152	0xbdac21fb	-0.08404919
153	0x3e08a824	0.1334539
154	0xbddaf0af	-0.10690438
155	0x3d122d71	0.035687868
156	0x3dbd73bc	0.0925059
157	0x3e7bd063	0.24591212
158	0xbe168d0f	-0.14702247
159	0x3dd444cd	0.10364685
160	0xbcf41c9f	-0.029798804
161	0x3e3b2fef	0.18280004
162	0x3d07b4ef	0.033131536
163	0xbd76e283	-0.060274612
164	0xbdd57d77	-0.10424321
165	0xbeb792c3	-0.35854158
166	0x3deafa17	0.11473482
167	0x3e2de8c7	0.16983329
168	0x3b231feb	0.002489085
169	0x3e2b1fbb	0.16711323
170	0xbda5e91b	-0.08101102
171	0xbdb46fb1	-0.08810366
172	0x3d17fbb3	0.037105273
173	0x3d974872	0.07386865
174	0x3dfabb58	0.12242764
175	0x3e494db2	0.19658545
176	0x3e4fee42	0.20305732
177	0x3d73fbc4	0.059566274
178	0x3e5105fe	0.20412442
179	0xbd7018c9	-0.058617387
180	0x3d03c610	0.03217131
181	0xbc96e7f0	-0.018421143
182	0x3d5e509d	0.054276098
183	0x3da8217f	0.08209514
184	0xbe3dd036	-0.18536457
185	0x3e8a000a	0.26953155
186	0xbe4442f6	-0.19166169
187	0x3db74598	0.08948821
188	0xbe7af5cc	-0.24507827
189	0x3d86421e	0.065555796
190	0xbd48d47e	-0.049030773
191	0x3c72794f	0.01479943
192	0xbe00abeb	-0.12565582
193	0xbbe6a0c9	-0.00703821
194	0xbe0a625a	-0.1351408
195	0xbd810b47	-0.06300979
196	0x3e29ee1a	0.16594735
197	0x3e144bd8	0.14482057
198	0x3e0aea5d	0.13565965
199	0xbca697df	-0.02033609
200	0xbd677365	-0.056506533
201	0xbd5ae14b	-0.053437512
202	0xbdd58c5a	-0.104271606
203	0x3dbc4b3b	0.091940366
204	0x3dac18f2	0.084031954
205	0xbe40740d	-0.1879427
206	0x3e2d7772	0.16940096
207	0xbd947764	-0.072493345
208	0x3d9225c8	0.071361125
209	0xbe002da0	-0.12517405
210	0xbf15230d	-0.5825661
211	0xbc487fab	-0.01223747
212	0x3e3f875e	0.18703982
213	0x3dfb74e1	0.12278152
214	0xbdf8eb26	-0.12154226
215	0xbd022727	-0.03177562
216	0x3dca11e3	0.09866693
217	0xbdc32a18	-0.09529513
218	0xbdec9a0b	-0.11552819
219	0x3e806f4c	0.25084913
220	0x3e1530d3	0.14569406
221	0xbdb75a3e	-0.08952759
222	0xbda8d481	-0.08243657
223	0x3cdc4676	0.026889067
224	0xbeec659e	-0.46171278
225	0xbe59532c	-0.21223134
226	0xbd7a70c2	-0.06114269
227	0x3cc3937b	0.023874035
228	0x3e965710	0.29363298
229	0xbdad7f71	-0.08471573
230	0x3d64a124	0.05581774
231	0xbdc8205b	-0.09771796
232	0xbe1a7d75	-0.1508692
233	0xbd79728e	-0.060900263
234	0x3cd3a1e3	0.02583403
235	0x3dadb726	0.084821984
236	0xbdba5784	-0.090987235
237	0x3e32c761	0.1745887
238	0x3e28ed39	0.16496743
239	0xbce2807e	-0.02764916
240	0xbeae5633	-0.3405014
241	0x3cb7c41e	0.022432383
242	0xbb3bbd9a	-0.0028646947
243	0x3d9562ce	0.07294236
244	0xbd0e20a6	-0.034699105
245	0x3d8f974f	0.07011282
246	0x3d01b1e6	0.031663798
247	0xbe743269	-0.23847355
248	0xbe4520c4	-0.1925078
249	0xbe90e06e	-0.28296226
250	0xbdc83560	-0.097758055
251	0xbc50674f	-0.012719943
252	0xbe00f917	-0.1259502
253	0xbedf6e15	-0.43638673
254	0xbd31ff57	-0.0434564
255	0xbe38b8fa	-0.18039313

actor.2.bias f4 [128]
0	0xbdd0a011	-0.1018678
1	0xbf29edad	-0.6637829
2	0xbe4ed8d5	-0.20199902
3	0xbe516595	-0.20448907
4	0xbe49db70	-0.19712615
5	0xbeb719fd	-0.35762015
6	0xbe6f4d76	-0.23369393
7	0xbe0fa41c	-0.14027447
8	0xbdbfb6c3	-0.09361031
9	0xbe883cb5	-0.26608816
10	0xbe6d9abb	-0.23203556
11	0x3dfdcdad	0.12392745
12	0xbef8bd08	-0.4858172
13	0xbe2e195e	-0.17001864
14	0xbe0ec399	-0.13941802
15	0xbe9ea793	-0.30987224
16	0x3dd184e7	0.10230427
17	0x3da19270	0.07889259
18	0xbeacf2e2	-0.33779055
19	0xbe966535	-0.2937409
20	0xbeaac1a7	-0.3335087
21	0x3d552e94	0.052046373
22	0xbe20e310	-0.15711617
23	0xbd990bfb	-0.07472988
24	0xbe69fca9	-0.22850288
25	0xbe922364	-0.28542626
26	0xbf322126	-0.6958183
27	0xbe9804e5	-0.29691234
28	0xbe432328	-0.1905638
29	0xbda16464	-0.07880476
30	0xbdce5f96	-0.10076825
31	0xbeb0d5a6	-0.34538
32	0xbe594f16	-0.21221575
33	0xbec993fc	-0.39370716
34	0xbdafd6f8	-0.08585924
35	0xbe71f9ff	-0.23630522
36	0xbec37e44	-0.3818227
37	0xbe538d58	-0.20659387
38	0xbdcf6a76	-0.10127728
39	0xbccae91f	-0.024769364
40	0xbe168fdb	-0.14703314
41	0xbcdf75e9	-0.027277904
42	0xbeb3b6e3	-0.3510047
43	0xbec8a1a9	-0.39185837
44	0x3d0d90a5	0.034561772
45	0xbdf8f729	-0.12156517
46	0xbdf25654	-0.11832872
47	0xbe6a9365	-0.22907789
48	0xbdeb67db	-0.11494418
49	0x3dde8378	0.108649194
50	0xbe8d7288	-0.27626443
51	0xbda3292d	-0.07966838
52	0xbe370192	-0.17871693
53	0xbf0fd699	-0.56186825
54	0xbe628836	-0.22122273
55	0xbef84df8	-0.48496985
56	0xbe7495f6	-0.2388533
57	0xbe38abec	-0.18034333
58	0x3e2b694e	0.1673939
59	0xbda1c3f1	-0.07898701
60	0xbe59bde4	-0.21263844
61	0xbeab1281	-0.33412555
62	0x3a9bf8a9	0.0011899668
63	0x3e3fbe04	0.18724829
64	0xbe59f2ff	-0.21284102
65	0xbeebb67c	-0.46037662
66	0xbc3a1017	-0.011356375
67	0xbe0a9713	-0.13534193
68	0xbe9b05ae	-0.3027777
69	0xbed0645b	-0.40701565
70	0xbe09d508	-0.13460171
71	0x3db5fc2a	0.08885987
72	0xbe95cf80	-0.29259872
73	0xbe82c6ef	-0.255424
74	0xbdd5ee51	-0.10445846
75	0xbee7f288	-0.45302224
76	0xbd5b18fb	-0.05349062
77	0xbe433ab5	-0.19065364
78	0xbe5b6ac5	-0.21427448
79	0xbe7255af	-0.23665498
80	0xbe8170b2	-0.25281292
81	0xbe2eee36	-0.17083058
82	0xbebeca70	-0.37263823
83	0xbed5ac29	-0.4173291
84	0xbef54e72	-0.47911412
85	0xbe2168ca	-0.1576263
86	0xbe0abbea	-0.13548246
87	0x3dff11a4	0.124545366
88	0xbe1253f2	-0.14289835
89	0xbe5d16a9	-0.21590675
90	0xbea40093	-0.32031688
91	0xbdfefa13	-0.124500416
92	0xbdc0cc3b	-0.09413954
93	0xbe9fd64e	-0.3121819
94	0xbecc3867	-0.39886782
95	0x3cc302e5	0.023805091
96	0xbee16851	-0.440249
97	0xbda84a3a	-0.082172826
98	0xbecbb9db	-0.39790234
99	0xbe10b16a	-0.14130178
100	0xbebbc331	-0.36672357
101	0x3d98801b	0.07446309
102	0xbd539060	-0.05165136
103	0xbe54284b	-0.20718496
104	0xbe84730f	-0.25869033
105	0xbec0ab7f	-0.3763084
106	0xbe8f982e	-0.2804579
107	0xbe035895	-0.1282676
108	0xbe6d0676	-0.23146996
109	0xbec694b6	-0.38785332
110	0xbe94b7f4	-0.29046595
111	0xbc19b768	-0.009382106
112	0xbe79c481	-0.24391367
113	0x3e18108c	0.14850062
114	0xbea74db1	-0.3267646
115	0xbdf71f74	-0.12066546
116	0xbe9ca76f	-0.30596492
117	0xbe176635	-0.14785083
118	0xbe0c63dc	-0.13709968
119	0xbe6227d4	-0.22085506
120	0x3d701a4a	0.05861882
121	0xbe158daf	-0.14604829
122	0xbd9e26dc	-0.077222556
123	0xbe3ecfa4	-0.18633896
124	0xbdd7fbb6	-0.10546057
125	0xbe85c2b9	-0.26125124
126	0xbd191e7c	-0.037382588
127	0xbe8ce132	-0.2751556

actor.4.weight f4 [128, 128]
0	0xbd497511	-0.04918391
1	0xbe1236f9	-0.14278783
2	0x3dca4c48	0.09877831
3	0x3d97a2ba	0.074040845
4	0x3d0d8e8b	0.034559768
5	0x3e240609	0.16017927
6	0xbe87d382	-0.26528555
7	0x3e5717e4	0.21005207
8	0xbe0f76e4	-0.14010197
9	0x3e1cdfb3	0.1531971
10	0xbe8d567b	-0.27605042
11	0xbde77076	-0.11300747
12	0xbe264646	-0.16237745
13	0xbe94fecb	-0.29100642
14	0xbe1f35bd	-0.15547843
15	0x3d5b5aee	0.053553514
16	0xbe70b289	-0.23505606
17	0xbe81219f	-0.25220963
18	0xbd1e3878	-0.03862807
19	0xbba4f18b	-0.005033677
20	0x3d0d46bf	0.034491297
21	0xbe01ec27	-0.12687741
22	0xbe2f84c8	-0.17140496
23	0xbeb8e9d8	-0.3611591
24	0xbeb27054	-0.34851325
25	0xbe3a7f89	-0.18212713
26	0x3d84b4e0	0.06479812
27	0x3dad6e8e	0.08468352
28	0x3d474b34	0.048655704
29	0x3e523aae	0.20530197
30	0xbeb16889	-0.34650066
31	0x3df17681	0.11790181
32	0xbe5dc08c	-0.21655482
33	0xbe1dd0ce	-0.15411684
34	0x3dd4a3a4	0.103827745
35	0xbe1a7c39	-0.1508645
36	0x3ac6d135	0.001516855
37	0x3e18d087	0.14923297
38	0xbccd7471	-0.025079938
39	0x3d386337	0.045016494
40	0xbd422056	-0.04739412
41	0x3cda9775	0.026683548
42	0x3d9b4120	0.07580781
43	0x3d5b6d8e	0.053571276
44	0x3de6e341	0.11273814
45	0xbe8c61dd	-0.27418414
46	0x3d89a66d	0.06721196
47	0x3e827a11	0.25483754
48	0xbe577b00	-0.21043015
49	0x3b455579	0.003011076
50	0xbbba2ab7	-0.0056813615
51	0x3e9662a8	0.29372144
52	0xbe048026	-0.1293951
53	0x3dcfb81b	0.10142537
54	0x3d230a6c	0.03980486
55	0x3e19c9f4	0.15018445
56	0x3d3a237f	0.045444008
57	0x3e1e008c	0.15429896
58	0x3bdd2948	0.006749306
59	0x3e30f995	0.17282708
60	0xbe02203e	-0.12707612
61	0xbc9fa3b6	-0.019487243
62	0x3ce31a41	0.02772248
63	0xbe1981eb	-0.14990966
64	0x3dcd08e5	0.10011462
65	0xbeedf080	-0.4647255
66	0xbd0c5178	-0.034257382
67	0xbe8518af	-0.25995395
68	0x3c02d172	0.007984506
69	0x3de08c51	0.10964263
70	0x3e6b954e	0.23006174
71	0x3dd5509e	0.10415767
72	0x3db664c1	0.08905936
73	0xbd273c9c	-0.040829286
74	0x3d0cf3f7	0.03441235
75	0x3d732fff	0.059371945
76	0xbe8409fc	-0.25788867
77	0xbd62314a	-0.055222787
78	0xbca7c5fe	-0.020480152
79	0x3df391a3	0.118930124
80	0x3d348e91	0.044081274
81	0x3d0ba976	0.034097157
82	0x3eb52460	0.35379314
83	0x3e43fa1e	0.19138381
84	0x3d4fb069	0.050705347
85	0x3e70d19a	0.23517457
86	0x3c9eb16e	0.019371714
87	0x3d479e70	0.048735082
88	0xbe150509	-0.14552702
89	0x3db98b8a	0.09059818
90	0xbabfdcd4	-0.0014637955
91	0x3dfd5854	0.12370363
92	0xbe9769b0	-0.2957282
93	0x3e438b90	0.19096208
94	0x3e3d6143	0.18494134
95	0xbedef823	-0.43548688
96	0xbe99ccf5	-0.30039182
97	0x3cc361ad	0.023850286
98	0x3e76a67b	0.24086945
99	0xbeaefbf9	-0.34176615
100	0x3ddd216f	0.107973926
101	0x3da882e3	0.0822809
102	0x3dd75c74	0.10515681
103	0xbc9efa9f	-0.019406615
104	0x3e2c0b3b	0.16801159
105	0x3e350a92	0.17679814
106	0x3d8c1a96	0.06841008
107	0x3da0f480	0.07859135
108	0x3cb73c39	0.022367584
109	0x3e6f3c59	0.23362865
110	0x3e0ffa0d	0.1406023
111	0xbe0a4f83	-0.13506894
112	0xbe3f7078	-0.18695247
113	0xbd2f3545	-0.04277541
114	0x3cf90385	0.030397186
115	0xbd9ece3b	-0.07754179
116	0xbe4acb0a	-0.19804016
117	0xbe2e2885	-0.17007644
118	0xbcb896f2	-0.022532914
119	0x3c7b1a39	0.015326076
120	0xbdd048c8	-0.10170132
121	0xbe24a1fa	-0.16077414
122	0x3de95ef1	0.11395062
123	0xbda83961	-0.08214069
124	0x3dcd0682	0.10011007
125	0x3dbe9201	0.09305192
126	0xbd18d769	-0.037314806
127	0x3e71d381	0.23615839
128	0xbea83aaf	-0.32857272
129	0x3e6e8a22	0.23294881
130	0xbd070b93	-0.032970022
131	0x3d4ccfab	0.050002735
132	0xbd852252	-0.06500687
133	0x3e52ef87	0.20599185
134	0x3d48b617	0.04900178
135	0xbd0e3eb0	-0.034727752
136	0xbe2ab90a	-0.1667215
137	0x3e16fdc3	0.1474524
138	0xbe1b5d22	-0.15172246
139	0xbe73a56a	-0.23793569
140	0x3d8ef6d1	0.0698067
141	0xbed11d27	-0.40842554
142	0xbc9e7b94	-0.019346036
143	0x3ece7bdc	0.40328872
144	0xbd902b9d	-0.070395686
145	0xbdbf871c	-0.09351942
146	0x3e82122c	0.2540449
147	0x3eaf40e6	0.342292
148	0x3c90135d	0.017587358
149	0xbe8722ad	-0.26393643
150	0x3e1f8e03	0.15581517
151	0xbf106a96	-0.5641264
152	0xbe5a0bcd	-0.21293564
153	0x3e71d0c1	0.2361479
154	0x3e44995f	0.19199131
155	0xbdee1ee3	-0.11626985
156	0xbe64397d	-0.22287555
157	0x3e488d30	0.19585109
158	0x3ebf87a2	0.37408167
159	0x3de4fc1d	0.11180899
160	0x3e36f771	0.17867829
161	0x3ea83cba	0.3285883
162	0xbe0ef9a2	-0.13962415
163	0xbd51879c	-0.051154718
164	0x3e9e5cd1	0.30930188
165	0xbefbfa56	-0.4921443
166	0xbe8b6256	-0.27223462
167	0xbd9a7be4	-0.075431615
168	0x3e4d4ccf	0.20048831
169	0xbdc0a283	-0.09405997
170	0xbd019bac	-0.0316426
171	0xbd258a45	-0.040415067
172	0xbdacc40d	-0.08435831
173	0x3e72af97	0.23699795
174	0x3dc52da3	0.09627845
175	0x3f3e2e3c	0.742893
176	0xbca9bf19	-0.020721005
177	0xbc51a09e	-0.012794642
178	0x3ef12709	0.47100094
179	0xbeaf4f05	-0.34239975
180	0x3e364313	0.17799024
181	0x3e9e0304	0.30861676
182	0xbd4355ed	-0.047689367
183	0x3e8d5c65	0.27609554
184	0xbdf507a7	-0.1196435
185	0x3e53f236	0.20697865
186	0xbe0d3597	-0.13789974
187	0x3f312e01	0.6921082
188	0xbcff6d73	-0.03118012
189	0x3f151e39	0.5824924
190	0x3d08b6f7	0.033377614
191	0xbea052df	-0.31313226
192	0x3e29cdad	0.16582365
193	0x3dedb275	0.116063036
194	0xbdf12179	-0.117739625
195	0x3e6da88c	0.23208827
196	0x3e5f4dad	0.21806975
197	0x3d62123d	0.055193175
198	0x3e297307	0.16547786
199	0xbe3bcc1e	-0.18339583
200	0x3e4c2973	0.19937687
201	0xbda0a813	-0.078445576
202	0xbeb02a46	-0.34407252
203	0x3e3b682d	0.18301459
204	0xbefbb6b5	-0.49162832
205	0xbd1facef	-0.03898328
206	0x3c5d4d9a	0.013507271
207	0xbd28c181	-0.041200165
208	0x3d38c1bd	0.04510664
209	0xbdc848c2	-0.097795025
210	0x3f24421c	0.64163375
211	0x3ea8140c	0.32827795
212	0x3e286775	0.16445716
213	0x3eba2910	0.36359453
214	0xbf266457	-0.64996856
215	0xbe830c71	-0.2559543
216	0xbdfd8efb	-0.12380787
217	0x3f759e3c	0.9594457
218	0x3d711190	0.05885464
219	0xbe1236d0	-0.14278722
220	0xbe27f69f	-0.16402672
221	0x3eaaf763	0.33391866
222	0x3afd276c	0.0019314117
223	0xbf2c62b7	-0.67338127
224	0x3ea14d03	0.31504068
225	0xbe605048	-0.21905625
226	0xbe020355	-0.12696584
227	0xbe899dcf	-0.2687821
228	0x3e8f2f8b	0.2796596
229	0xbe9974e0	-0.2997198
230	0x3d9315c0	0.07181883
231	0xbe8501b8	-0.25977874
232	0x3eff3ce3	0.4985114
233	0xbc041beb	-0.008063297
234	0x3ea53062	0.32263476
235	0xbe3687e1	-0.17825271
236	0xbb26923e	-0.0025416757
237	0x3edfa4c6	0.436804
238	0x3e7f8e94	0.24956733
239	0xbe7a302a	-0.24432436
240	0x3e9c7b0a	0.3056262
241	0xbdc915e3	-0.09818628
242	0x3ec04e16	0.37559575
243	0xbe2f5d34	-0.17125398
244	0xbe58018a	-0.21094337
245	0x3dbb0b56	0.091330215
246	0xbe94d2f7	-0.29067203
247	0xbd44b947	-0.048028257
248	0xbe5d4db5	-0.21611674
249	0xbe3f2bb2	-0.18669012
250	0x3ddb2f1f	0.10702347
251	0xb8c95318	-9.599904e-05
252	0x3cc9615a	0.024582554
253	0xbe2b0486	-0.16700944
254	0xbeb51d92	-0.35374123
255	0x3e3bf4e6	0.1835514

actor.4.bias f4 [128]
0	0xbd01b9fb	-0.031671505
1	0xbedccb0d	-0.43123665
2	0xbe1b1043	-0.15142922
3	0xbe8ec05f	-0.27881142
4	0xbeb9c908	-0.36286187
5	0xbe16e7b2	-0.14736822
6	0xbd7803e7	-0.060550597
7	0xbe341f14	-0.1758998
8	0xbe86e382	-0.2634545
9	0x3c276c7e	0.010218738
10	0x3cb04d7a	0.021521319
11	0xbe370bef	-0.17875646
12	0xbe2b0ea4	-0.16704804
13	0xbe2e0389	-0.16993536
14	0xbe946974	-0.28986704
15	0xbec43ac3	-0.38326082
16	0xbedb9905	-0.42890182
17	0xbdd61653	-0.10453477
18	0xbecbfc4d	-0.39840928
19	0xbe75ed77	-0.24016367
20	0xbe776d1d	-0.24162717
21	0xbda7545f	-0.081703894
22	0xbe92fb38	-0.2870729
23	0xbe05632e	-0.13026115
24	0xbe189a64	-0.14902645
25	0xbcf02693	-0.029315269
26	0xbeb33ec5	-0.35008827
27	0xbea1da91	-0.31612065
28	0xbd33c0b2	-0.04388494
29	0xbe6b15d8	-0.22957551
30	0xbe0f9a29	-0.14023651
31	0xbeb78c7f	-0.35849378
32	0xbeb24730	-0.34819937
33	0xbe877912	-0.26459557
34	0xbe009274	-0.12555867
35	0xbe1c7472	-0.15278795
36	0x3df30354	0.11865869
37	0xbe6f8e86	-0.23394212
38	0xbd412edb	-0.047163825
39	0xbeb196b3	-0.34685287
40	0xbe1a76f7	-0.15084444
41	0x3d8f795e	0.07005571
42	0xbe3b1234	-0.18268663
43	0xbed82164	-0.42212975
44	0xbee1865e	-0.44047827
45	0xbe1706e0	-0.14748716
46	0xbcf95461	-0.030435743
47	0xbd4948f3	-0.049141835
48	0xbeac740e	-0.33682293
49	0xbdbc4ce1	-0.09194351
50	0xbd2ba97b	-0.041909676
51	0xbe351885	-0.17685135
52	0xbe4a6409	-0.19764723
53	0xbe58c8df	-0.21170376
54	0xbe89e075	-0.2692906
55	0xbe1fa566	-0.15590438
56	0xbc10316a	-0.008800844
57	0xbcf435e0	-0.029810846
58	0x3d6973c2	0.05699516
59	0xbec1aa45	-0.37825218
60	0xbdcf55e7	-0.101238064
61	0xbe57ac15	-0.21061738
62	0xbea3c362	-0.31985003
63	0xbec58ec0	-0.38585472
64	0xbeb47ed1	-0.35253003
65	0xbdbce624	-0.09223583
66	0xbecc3765	-0.39886013
67	0xbe4e6fc8	-0.20159829
68	0xbd8bebdc	-0.06832096
69	0xbc058685	-0.008149748
70	0xbe8b5bd1	-0.27218488
71	0xbe54b464	-0.20771939
72	0xbe6f51d5	-0.2337106
73	0xbe847d57	-0.25876877
74	0xbe95ed0e	-0.2928242
75	0xbd0af53e	-0.033925287
76	0xbeb3a202	-0.3508454
77	0xbe3c1978	-0.1836909
78	0xbe26637b	-0.16248886
79	0xbe4355a7	-0.19075643
80	0xbe60a713	-0.21938734
81	0xbd9627b1	-0.07331789
82	0xbe97053f	-0.2949619
83	0xbe95e50f	-0.2927632
84	0xbea34f84	-0.31896603
85	0xbe49b06a	-0.19696203
86	0xbe8d46eb	-0.2759317
87	0xbe858450	-0.2607751
88	0xbe55fa61	-0.20896293
89	0xbd6ec2b9	-0.05829117
90	0xbe2b3ad0	-0.16721654
91	0xbe6f0eb6	-0.23345456
92	0xbdeea5c0	-0.11652708
93	0xbe3be94a	-0.18350711
94	0xbe4bbdd8	-0.19896638
95	0xbe6930d8	-0.22772539
96	0xbe625e1a	-0.2210621
97	0xbd49009d	-0.04907285
98	0xbdf6f00d	-0.12057505
99	0xbe975f13	-0.29564723
100	0xbe78eb5f	-0.24308537
101	0xbe9ba695	-0.3040053
102	0xbd747fe8	-0.059692293
103	0xbe8fea63	-0.2810851
104	0xbe099374	-0.13435155
105	0xbe7e063f	-0.2480707
106	0x3d6b2f8d	0.057418395
107	0xbec7f248	-0.39052033
108	0x3ab38460	0.0013696067
109	0xbce89096	-0.028389256
110	0xbe9e7ff4	-0.30956995
111	0xbefaa4dd	-0.48953906
112	0xbe05ece3	-0.13078646
113	0x3b81758c	0.0039507803
114	0xbe860d92	-0.26182228
115	0xbe517642	-0.20455268
116	0xbe90a5ff	-0.28251645
117	0xbe813d72	-0.25242192
118	0xbe5ae9c8	-0.21378243
119	0xbe5d8d81	-0.2163601
120	0xbec2a00c	-0.3801273
121	0xbd6b034b	-0.057376187
122	0xbdbf1e1d	-0.093319155
123	0xbcfe3c40	-0.031034589
124	0xbef55fe1	-0.47924712
125	0x3c27683b	0.010217722
126	0xbe813bd9	-0.25240973
127	0xbd3f3d85	-0.04668953

actor.6.weight f4 [12, 128]
0	0x3d684cc0	0.05671382
1	0x3e705b23	0.23472266
2	0x3d15fcb3	0.036617946
3	0x3d88d0df	0.06680464
4	0x3a31af04	0.00067780935
5	0x3d308a2f	0.043100532
6	0x3d2a6382	0.041598804
7	0xbd7d3220	-0.06181538
8	0x3db64fbe	0.08901928
9	0x3d4554fe	0.048176758
10	0x3ce452af	0.027871458
11	0x3d46f023	0.048568856
12	0xbc7c58ba	-0.015402013
13	0xbddc67cc	-0.10761985
14	0xba81df05	-0.0009908384
15	0x3d44f874	0.048088506
16	0xbdb400c3	-0.08789208
17	0x3d12a85f	0.035805102
18	0x3d31eb06	0.043437026
19	0x3b857a81	0.0040734415
20	0xbcc42741	-0.023944499
21	0x3d041ee4	0.032256022
22	0xbd1a0c10	-0.03760916
23	0xbd201543	-0.039082777
24	0xbd4c301c	-0.04985057
25	0xbd5e1b89	-0.05422548
26	0xbc00c30d	-0.007859004
27	0x3d5181df	0.051149245
28	0x3a8469ad	0.0010102295
29	0xbd430876	-0.04761549
30	0xbd86a816	-0.065750286
31	0x3bc68a8d	0.006058997
32	0xbd255993	-0.040368628
33	0xbce08102	-0.027405266
34	0xbd84aec3	-0.06478646
35	0x3d2a9da2	0.041654237
36	0x3d478cfd	0.04871844
37	0x3cfadb86	0.030622255
38	0xbc2a5503	-0.010396245
39	0xbd406472	-0.046970792
40	0x3dd7c8d1	0.105363496
41	0xbb2168f5	-0.002462921
42	0xbc4c39a0	-0.012464911
43	0xbc9eb11a	-0.019371558
44	0x3d993b2d	0.0748199
45	0x3cbf9584	0.023386724
46	0x3c95608d	0.018234516
47	0x3d284b4c	0.041087434
48	0x3df35d14	0.118829876
49	0x3ceb5e7a	0.028731573
50	0x3d5edb6d	0.05440848
51	0xbd82e3fa	-0.06391139
52	0x3d4bae86	0.049726985
53	0x3d3241b2	0.043519683
54	0xbd99a9c2	-0.07503082
55	0x3d853eed	0.06506143
56	0x3c374d5e	0.011187879
57	0xbcc81c96	-0.024427693
58	0xbc95d51e	-0.018290099
59	0xbd2feac1	-0.04294849
60	0xbd8c30f4	-0.068452746
61	0xbc49faec	-0.012327891
62	0x3c0da9a0	0.008646399
63	0xbd71166b	-0.05885927
64	0xbdddecdb	-0.10836192
65	0xbcb9e89b	-0.022693923
66	0xbd6689fa	-0.05628393
67	0x3dd56b78	0.10420889
68	0xbc4aafac	-0.012370985
69	0xbc43fed8	-0.011962615
70	0xbc2c8466	-0.010529613
71	0x3da9df8f	0.082945935
72	0xbcdc64d3	-0.026903545
73	0xbdbb3e36	-0.09142725
74	0xbc81c474	-0.015840746
75	0xbd0fc723	-0.03510202
76	0xbdb2017b	-0.086916886
77	0xbd42e379	-0.047580216
78	0x3cb0e473	0.021593308
79	0x3b1a72b1	0.0023566897
80	0xbcb5c1df	-0.022187172
81	0xbd0b3d18	-0.03399381
82	0xbc559222	-0.013035329
83	0x3bceed09	0.006314878
84	0xbc13d668	-0.009023286
85	0xbd890428	-0.06690246
86	0xbd301b11	-0.042994563
87	0xbc6da276	-0.014504066
88	0x3c2485b2	0.010041641
89	0xbd1a2c0b	-0.03763966
90	0xbd158e1c	-0.03651248
91	0x3c11cb50	0.008898571
92	0xbbedbeec	-0.0072554257
93	0x3d444ead	0.047926594
94	0x3d419565	0.047261614
95	0xbd63e1f1	-0.055635396
96	0xbd48b35b	-0.04899917
97	0x3ce41e58	0.0278465
98	0xbc805832	-0.015667055
99	0xbdb7e98a	-0.08980091
100	0x3cb8df0c	0.022567295
101	0xbc80942e	-0.015695658
102	0x3c339984	0.010961894
103	0xbcbb9b10	-0.022901088
104	0xbc1553c0	-0.009114206
105	0x3c5d6620	0.013513118
106	0x3d3245db	0.04352365
107	0x3c01adc2	0.007914962
108	0x3c663d28	0.014052667
109	0xbaf0e6c2	-0.0018379318
110	0xbcff3aca	-0.031155962
111	0xbd86c3fd	-0.065803505
112	0xbbfba15b	-0.007679147
113	0x3d9400b1	0.072266944
114	0x3d28f6eb	0.041251104
115	0x3d48a801	0.048988346
116	0x3c64e00d	0.0139694335
117	0xbda9379c	-0.0826256
118	0x3d8ba92b	0.068193756
119	0xbd8ac95f	-0.0677669
120	0x3c617144	0.013759915
121	0x3d98f46d	0.074684955
122	0x3dcc7293	0.09982791
123	0x3cc047d1	0.023471745
124	0xbd1d4dc5	-0.038404245
125	0x3a9c1692	0.0011908582
126	0xbcef84e2	-0.029238168
127	0x3d7feae6	0.062479876
128	0x3c9bdef7	0.019027216
129	0x3c025756	0.007955393
130	0x3da6f837	0.08152812
131	0x3c44320a	0.011974821
132	0x3d69eac4	0.057108656
133	0x3d2f9a44	0.04287173
134	0x3bc0eaca	0.005887364
135	0x3ce79d13	0.028273141
136	0x3b09272f	0.0020927896
137	0xbc3bdf72	-0.011466848
138	0xbb0bf061	-0.0021352994
139	0x3d599bdd	0.05312716
140	0xbb397b66	-0.002830231
141	0x3d5d7e66	0.05407562
142	0xbd495fb2	-0.049163528
143	0x3cbeb117	0.023277802
144	0xbdab678f	-0.083693616
145	0xbd5fbb63	-0.054622065
146	0x3c22cb1a	0.0099361185
147	0xbcbad507	-0.022806657
148	0xbced0bf0	-0.028936356
149	0xbc46a47d	-0.012124178
150	0x3c9a31a8	0.018822506
151	0x3bff516d	0.007791689
152	0xbbc28385	-0.0059360885
153	0x3cfc3522	0.030787054
154	0xbd34e7bb	-0.044166308
155	0x3c981973	0.018566823
156	0x3d929f46	0.07159285
157	0xbd8cdb88	-0.0687781
158	0xbc5e2359	-0.013558232
159	0x3d267ff8	0.040649384
160	0xbd44f31b	-0.048083406
161	0xbdf66ee6	-0.12032871
162	0xbb7bb1e6	-0.0038405596
163	0xbd4451e3	-0.047929656
164	0x3d71ba05	0.059015293
165	0xbb59c2ba	-0.0033227638
166	0xbd483c75	-0.04888578
167	0x3db86c2c	0.09005007
168	0x3d82d225	0.06387738
169	0x3d12f9a5	0.03588261
170	0xbbe0ded7	-0.006862502
171	0xbd5e7f08	-0.054320365
172	0xbbf89642	-0.0075862715
173	0x3dde8ace	0.10866319
174	0x3d44f221	0.048082475
175	0xbcd3738e	-0.025811937
176	0x3c700bad	0.014651221
177	0xbb4d6974	-0.0031343373
178	0x3d06c1eb	0.03289978
179	0xbd57a8ea	-0.052651323
180	0xbb896739	-0.0041932133
181	0x3ce0abba	0.027425636
182	0xbd9b9661	-0.07597042
183	0x3d2105bd	0.039312113
184	0x3dc30da3	0.095240854
185	0xbc4e3d4c	-0.0125878565
186	0x3cc29d59	0.02375667
187	0xbd2e1f01	-0.042510036
188	0x3c8b7c1d	0.017026955
189	0xbd41fd2b	-0.04736058
190	0xbc393df2	-0.011306273
191	0x3c936e78	0.017997012
192	0xbda294e9	-0.079385586
193	0xbcd5dc72	-0.026106093
194	0x3cd9224b	0.02650561
195	0xbaeed575	-0.0018221574
196	0x3cc62baf	0.024190752
197	0x3ab04e5a	0.0013451085
198	0x3d8b5303	0.068029426
199	0x3b4a1ae4	0.0030838782
200	0x3c882073	0.016617035
201	0xbd954071	-0.07287682
202	0xbc5aed04	-0.013362173
203	0xbd1a47dc	-0.037666187
204	0xbd074469	-0.033024225
205	0xbb44e967	-0.0030046345
206	0xbc71582c	-0.0147304945
207	0xbd6bf12d	-0.05760305
208	0x3cd72bdc	0.026266031
209	0xbcc2b3a3	-0.023767298
210	0x3d107aae	0.035273246
211	0xbd759e93	-0.05996568
212	0xbc9215b5	-0.017832616
213	0xbd5103fe	-0.051029198
214	0xbda583d6	-0.08081786
215	0xbcfb2862	-0.030658904
216	0xbcf8821a	-0.030335475
217	0xbb900b64	-0.004395889
218	0xbc288bda	-0.010287249
219	0xbda0db0f	-0.07854282
220	0xbb1f3ba5	-0.0024297026
221	0x3c397664	0.01131973
222	0xbc8d978c	-0.017284177
223	0x3ccbb43a	0.024866212
224	0x3c8088a2	0.015690152
225	0x3d5a1cf2	0.05325026
226	0xbbf3b4cf	-0.0074373255
227	0xbdffc014	-0.12487808
228	0x3d9c87b7	0.07643073
229	0xbc919731	-0.017772289
230	0x3cfc4148	0.030792847
231	0xbd16a077	-0.036774125
232	0xbd6583ae	-0.056033783
233	0x3c3f1b4b	0.011664222
234	0x3cfd6d9b	0.030936053
235	0xbcb45ba7	-0.02201636
236	0x3b3dc143	0.0028954304
237	0xbb94f53b	-0.0045458353
238	0xbc6b3d2d	-0.014357847
239	0xbd03c8f5	-0.03217407
240	0x3d807dbc	0.06273982
241	0x3d4eab8b	0.050456565
242	0x3caece8b	0.021338722
243	0x3cc02edc	0.023459844
244	0xbd3c71b1	-0.046006862
245	0x3d7aabb0	0.06119889
246	0x3c9951e6	0.01871581
247	0xbd1ce0e7	-0.03830042
248	0xbbc37579	-0.0059649316
249	0x3d059604	0.03261377
250	0xbc0143a5	-0.007889663
251	0x3d5534ba	0.052052237
252	0xbd910bb4	-0.0708231
253	0xbd1d1f88	-0.03836015
254	0xbc0f0003	-0.00872803
255	0xbc4836a4	-0.012220059

actor.6.bias f4 [12]
0	0x3e9c7435	0.3055741
1	0x3df4abaf	0.119468085
2	0xbe9a2c7d	-0.30112067
3	0xbe05329a	-0.13007584
4	0x3e24936c	0.16071862
5	0xbdc31df0	-0.095271945
6	0xbe34d60a	-0.17659774
7	0xbe8866e6	-0.26641005
8	0xbe7b22ac	-0.24524945
9	0xbe22a902	-0.15884784
10	0x3e01c35b	0.12672178
11	0x3def563b	0.11686369
